…
2025-07-11 21:58:44,774 - PIGAN_train - INFO - TensorBoard logs will be saved to: d:\PI_GAN_THz\logs\PIGAN_train_20250711-215844
2025-07-11 21:58:44,774 - PIGAN_train - INFO - Starting PI_GAN_THZ Project in 'train' mode.
2025-07-11 21:58:44,775 - PIGAN_train - INFO - Using device: cpu
2025-07-11 21:58:44,775 - PIGAN_train - INFO - Random seed set to: 42
2025-07-11 21:58:44,836 - PIGAN_train - INFO - Dataset size: 1000 samples
2025-07-11 21:58:44,836 - PIGAN_train - INFO - Number of batches: 16
2025-07-11 21:58:44,860 - PIGAN_train - INFO - 
--- Model Architectures ---
2025-07-11 21:58:44,861 - PIGAN_train - INFO - Generator:
Generator(
  (model): Sequential(
    (0): Linear(in_features=250, out_features=1024, bias=True)
    (1): LayerNorm((1024,), eps=1e-05, elementwise_affine=True)
    (2): LeakyReLU(negative_slope=0.2, inplace=True)
    (3): Linear(in_features=1024, out_features=512, bias=True)
    (4): LayerNorm((512,), eps=1e-05, elementwise_affine=True)
    (5): LeakyReLU(negative_slope=0.2, inplace=True)
    (6): Linear(in_features=512, out_features=256, bias=True)
    (7): LayerNorm((256,), eps=1e-05, elementwise_affine=True)
    (8): LeakyReLU(negative_slope=0.2, inplace=True)
    (9): Linear(in_features=256, out_features=128, bias=True)
    (10): LayerNorm((128,), eps=1e-05, elementwise_affine=True)
    (11): LeakyReLU(negative_slope=0.2, inplace=True)
    (12): Linear(in_features=128, out_features=4, bias=True)
    (13): Sigmoid()
  )
)
2025-07-11 21:58:44,864 - PIGAN_train - INFO - Discriminator:
Discriminator(
  (model): Sequential(
    (0): Linear(in_features=254, out_features=512, bias=True)
    (1): LayerNorm((512,), eps=1e-05, elementwise_affine=True)
    (2): LeakyReLU(negative_slope=0.2, inplace=True)
    (3): Dropout(p=0.3, inplace=False)
    (4): Linear(in_features=512, out_features=256, bias=True)
    (5): LayerNorm((256,), eps=1e-05, elementwise_affine=True)
    (6): LeakyReLU(negative_slope=0.2, inplace=True)
    (7): Dropout(p=0.3, inplace=False)
    (8): Linear(in_features=256, out_features=128, bias=True)
    (9): LayerNorm((128,), eps=1e-05, elementwise_affine=True)
    (10): LeakyReLU(negative_slope=0.2, inplace=True)
    (11): Dropout(p=0.3, inplace=False)
    (12): Linear(in_features=128, out_features=1, bias=True)
    (13): Sigmoid()
  )
)
2025-07-11 21:58:44,866 - PIGAN_train - INFO - ForwardModel:
ForwardModel(
  (model): Sequential(
    (0): Linear(in_features=4, out_features=256, bias=True)
    (1): LayerNorm((256,), eps=1e-05, elementwise_affine=True)
    (2): LeakyReLU(negative_slope=0.2, inplace=True)
    (3): Dropout(p=0.2, inplace=False)
    (4): Linear(in_features=256, out_features=512, bias=True)
    (5): LayerNorm((512,), eps=1e-05, elementwise_affine=True)
    (6): LeakyReLU(negative_slope=0.2, inplace=True)
    (7): Dropout(p=0.2, inplace=False)
    (8): Linear(in_features=512, out_features=1024, bias=True)
    (9): LayerNorm((1024,), eps=1e-05, elementwise_affine=True)
    (10): LeakyReLU(negative_slope=0.2, inplace=True)
    (11): Dropout(p=0.2, inplace=False)
    (12): Linear(in_features=1024, out_features=512, bias=True)
    (13): LayerNorm((512,), eps=1e-05, elementwise_affine=True)
    (14): LeakyReLU(negative_slope=0.2, inplace=True)
    (15): Dropout(p=0.2, inplace=False)
    (16): Linear(in_features=512, out_features=256, bias=True)
    (17): LayerNorm((256,), eps=1e-05, elementwise_affine=True)
    (18): LeakyReLU(negative_slope=0.2, inplace=True)
    (19): Dropout(p=0.2, inplace=False)
    (20): Linear(in_features=256, out_features=258, bias=True)
  )
)
2025-07-11 21:58:44,868 - PIGAN_train - INFO - 
--- Pretraining Forward Model ---
